lightning_logs/version_0/checkpoints/epoch=299-step=600.ckpt (torch, 6962 bytes, 12 tensors)

lstm.weight_ih_l0 f4 [4, 1]
0	0x3fe207a9	1.7658588
1	0x3cb13278	0.02163051
2	0x400bb516	2.1829276
3	0x3f157275	0.5837777

lstm.weight_hh_l0 f4 [4, 1]
0	0x3feab4f1	1.8336469
1	0x4039d4a1	2.9036028
2	0x4009263b	2.1429584
3	0x400f4204	2.2384043

lstm.bias_ih_l0 f4 [4]
0	0x3f40a9c5	0.7525905
1	0x3f890749	1.0705348
2	0x3e39e6e3	0.18154483
3	0x3fb14383	1.3848728

lstm.bias_hh_l0 f4 [4]
0	0xbda880de	-0.082277045
1	0x3f362f32	0.71165764
2	0xbf56d819	-0.8392349
3	0x3d8cd0dc	0.06875774

exp_avg f4 [4, 1]
0	0xb733dec8	-1.0721102e-05
1	0xb66409ea	-3.3980418e-06
2	0xb7a3a8e4	-1.950976e-05
3	0xb98e5602	-0.0002714843

exp_avg_sq f4 [4, 1]
0	0x38bde053	9.054006e-05
1	0x3903c0fa	0.00012565023
2	0x3a526104	0.0008025321
3	0x3b78486c	0.0037884964

exp_avg f4 [4, 1]
0	0xb6f15864	-7.1926497e-06
1	0xb6788d4e	-3.703713e-06
2	0xb76160e6	-1.3433606e-05
3	0xb98cd604	-0.00026862335

exp_avg_sq f4 [4, 1]
0	0x376f90cd	1.4279224e-05
1	0x38486279	4.7775426e-05
2	0x3903d260	0.00012571504
3	0x3a826b76	0.0009950239

exp_avg f4 [4]
0	0xb78ca9ea	-1.6768423e-05
1	0xb6bfcf34	-5.716365e-06
2	0xb7df82cf	-2.6644584e-05
3	0xb99533ee	-0.00028458185

exp_avg_sq f4 [4]
0	0x395e7a8b	0.0002121722
1	0x3996fe0c	0.0002879951
2	0x3b4cae70	0.0031231903
3	0x3ba0f088	0.004911486

exp_avg f4 [4]
0	0xb78ca9ea	-1.6768423e-05
1	0xb6bfcf34	-5.716365e-06
2	0xb7df82d0	-2.6644586e-05
3	0xb99533ef	-0.00028458188

exp_avg_sq f4 [4]
0	0x395e7a8b	0.0002121722
1	0x3996fe0c	0.0002879951
2	0x3b4cae6e	0.0031231898
3	0x3ba0f088	0.004911486
